…
 white and black values of images are flipped\n","the shape of stacked train_data  is  2 1 128 128\n","image values are between 0.0 1.0\n","args.pad_value changed from 1  to new value 1.0\n","spdiv and mask updated\n","args.obstacle has been updated to the no obstacle setting\n","spdiv has been updated with obstacle\n","mask has been updated with obstacle\n","----------------------------------------------------------------\n","        Layer (type)               Output Shape         Param #\n","================================================================\n","            Conv2d-1            [1, 16, 32, 32]             160\n","            Conv2d-2            [1, 16, 32, 32]           2,320\n","         LeakyReLU-3            [1, 16, 32, 32]               0\n","            Conv2d-4            [1, 16, 32, 32]           2,320\n","         LeakyReLU-5            [1, 16, 32, 32]               0\n","         AvgPool2d-6            [1, 16, 16, 16]               0\n","            Conv2d-7            [1, 32, 16, 16]           4,640\n","         LeakyReLU-8            [1, 32, 16, 16]               0\n","            Conv2d-9            [1, 32, 16, 16]           9,248\n","        LeakyReLU-10            [1, 32, 16, 16]               0\n","        AvgPool2d-11              [1, 32, 8, 8]               0\n","           Conv2d-12              [1, 64, 8, 8]          18,496\n","        LeakyReLU-13              [1, 64, 8, 8]               0\n","           Conv2d-14              [1, 64, 8, 8]          36,928\n","        LeakyReLU-15              [1, 64, 8, 8]               0\n","        AvgPool2d-16              [1, 64, 4, 4]               0\n","           Conv2d-17             [1, 256, 4, 4]         147,712\n","        LeakyReLU-18             [1, 256, 4, 4]               0\n","           Conv2d-19              [1, 16, 4, 4]          36,880\n","           Conv2d-20              [1, 64, 4, 4]           9,280\n","        LeakyReLU-21              [1, 64, 4, 4]               0\n","           Conv2d-22              [1, 64, 4, 4]          36,928\n","        LeakyReLU-23              [1, 64, 4, 4]               0\n","         Upsample-24              [1, 64, 8, 8]               0\n","           Conv2d-25              [1, 32, 8, 8]          18,464\n","        LeakyReLU-26              [1, 32, 8, 8]               0\n","           Conv2d-27              [1, 32, 8, 8]           9,248\n","        LeakyReLU-28              [1, 32, 8, 8]               0\n","         Upsample-29            [1, 32, 16, 16]               0\n","           Conv2d-30            [1, 16, 16, 16]           4,624\n","        LeakyReLU-31            [1, 16, 16, 16]               0\n","           Conv2d-32            [1, 16, 16, 16]           2,320\n","        LeakyReLU-33            [1, 16, 16, 16]               0\n","         Upsample-34            [1, 16, 32, 32]               0\n","           Conv2d-35            [1, 16, 32, 32]           2,320\n","        LeakyReLU-36            [1, 16, 32, 32]               0\n","           Conv2d-37             [1, 1, 32, 32]             145\n","          Sigmoid-38             [1, 1, 32, 32]               0\n","================================================================\n","Total params: 342,033\n","Trainable params: 342,033\n","Non-trainable params: 0\n","----------------------------------------------------------------\n","Input size (MB): 0.00\n","Forward/backward pass size (MB): 1.82\n","Params size (MB): 1.30\n","Estimated Total Size (MB): 3.13\n","------------------------------------------
…
